…
  new_music = np.array(new_music)
2021-06-08 05:32:26.939358: I tensorflow/core/platform/cpu_feature_guard.cc:142] This TensorFlow binary is optimized with oneAPI Deep Neural Network Library (oneDNN) to use the following CPU instructions in performance-critical operations:  AVX2 FMA
To enable them in other operations, rebuild TensorFlow with the appropriate compiler flags.
Model: "sequential"
_________________________________________________________________
Layer (type)                 Output Shape              Param #   
=================================================================
embedding (Embedding)        (None, 32, 100)           17300     
_________________________________________________________________
conv1d (Conv1D)              (None, 32, 64)            19264     
_________________________________________________________________
dropout (Dropout)            (None, 32, 64)            0         
_________________________________________________________________
max_pooling1d (MaxPooling1D) (None, 16, 64)            0         
_________________________________________________________________
conv1d_1 (Conv1D)            (None, 16, 128)           24704     
_________________________________________________________________
dropout_1 (Dropout)          (None, 16, 128)           0         
_________________________________________________________________
max_pooling1d_1 (MaxPooling1 (None, 8, 128)            0         
_________________________________________________________________
conv1d_2 (Conv1D)            (None, 8, 256)            98560     
_________________________________________________________________
dropout_2 (Dropout)          (None, 8, 256)            0         
_________________________________________________________________
max_pooling1d_2 (MaxPooling1 (None, 4, 256)            0         
_________________________________________________________________
global_max_pooling1d (Global (None, 256)               0         
_________________________________________________________________
dense (Dense)                (None, 256)               65792     
_________________________________________________________________
dense_1 (Dense)              (None, 173)               44461     
=================================================================
Total params: 270,081
Trainable params: 270,081
Non-trainable params: 0
_________________________________________________________________
2021-06-08 05:32:27.457612: I tensorflow/compiler/mlir/mlir_graph_optimization_pass.cc:176] None of the MLIR Optimization Passes are enabled (registered 2)
Epoch 1/50
503/503 [==============================] - 22s 23ms/step - loss: 4.5482 - val_loss: 3.9903
…
